…
, 644, 645, 649, 655, 656, 658, 660, 662, 663, 670, 672, 674, 675, 676, 680, 682, 683, 684, 685, 687, 688, 691, 698, 699, 702, 703, 704, 709, 710, 713, 715, 718, 724, 727, 731, 732, 733, 735, 737, 738, 749, 750, 751, 753, 755, 756, 759, 763, 765]
2500
(2500, 216, 64, 8)
__________________________________________________________________________________________________
Layer (type)                    Output Shape         Param #     Connected to                     
==================================================================================================
input_1 (InputLayer)            (None, 216, 64, 1)   0                                            
__________________________________________________________________________________________________
conv2d_1 (Conv2D)               (None, 216, 64, 64)  640         input_1[0][0]                    
__________________________________________________________________________________________________
batch_normalization_1 (BatchNor (None, 216, 64, 64)  256         conv2d_1[0][0]                   
__________________________________________________________________________________________________
activation_1 (Activation)       (None, 216, 64, 64)  0           batch_normalization_1[0][0]      
__________________________________________________________________________________________________
max_pooling2d_1 (MaxPooling2D)  (None, 108, 32, 64)  0           activation_1[0][0]               
__________________________________________________________________________________________________
conv2d_2 (Conv2D)               (None, 108, 32, 128) 73856       max_pooling2d_1[0][0]            
__________________________________________________________________________________________________
batch_normalization_2 (BatchNor (None, 108, 32, 128) 512         conv2d_2[0][0]                   
__________________________________________________________________________________________________
activation_2 (Activation)       (None, 108, 32, 128) 0           batch_normalization_2[0][0]      
__________________________________________________________________________________________________
max_pooling2d_2 (MaxPooling2D)  (None, 54, 16, 128)  0           activation_2[0][0]               
__________________________________________________________________________________________________
conv2d_3 (Conv2D)               (None, 54, 16, 128)  147584      max_pooling2d_2[0][0]            
__________________________________________________________________________________________________
batch_normalization_3 (BatchNor (None, 54, 16, 128)  512         conv2d_3[0][0]                   
__________________________________________________________________________________________________
activation_3 (Activation)       (None, 54, 16, 128)  0           batch_normalization_3[0][0]      
__________________________________________________________________________________________________
conv_dil_1 (Conv2D)             (None, 54, 16, 128)  147584      activation_3[0][0]               
__________________________________________________________________________________________________
batch_normalization_4 (BatchNor (None, 54, 16, 128)  512         conv_dil_1[0][0]                 
__________________________________________________________________________________________________
activation_4 (Activation)       (None, 54, 16, 128)  0           batch_normalization_4[0][0]      
__________________________________________________________________________________________________
conv_dil_2 (Conv2D)             (None, 54, 16, 128)  147584      activation_4[0][0]               
__________________________________________________________________________________________________
batch_normalization_5 (BatchNor (None, 54, 16, 128)  512         conv_dil_2[0][0]                 
__________________________________________________________________________________________________
activation_5 (Activation)       (None, 54, 16, 128)  0           batch_normalization_5[0][0]      
__________________________________________________________________________________________________
conv_dil_3 (Conv2D)             (None, 54, 16, 128)  147584      activation_5[0][0]               
__________________________________________________________________________________________________
dropout_1 (Dropout)             (None, 54, 16, 128)  0           max_pooling2d_2[0][0]            
__________________________________________________________________________________________________
batch_normalization_6 (BatchNor (None, 54, 16, 128)  512         conv_dil_3[0][0]                 
__________________________________________________________________________________________________
skip_conv_1 (Conv2D)            (None, 54, 16, 128)  147584      dropout_1[0][0]                  
__________________________________________________________________________________________________
activation_6 (Activation)       (None, 54, 16, 128)  0           batch_normalization_6[0][0]      
__________________________________________________________________________________________________
batch_normalization_7 (BatchNor (None, 54, 16, 128)  512         skip_conv_1[0][0]                
__________________________________________________________________________________________________
dropout_2 (Dropout)             (None, 54, 16, 128)  0           activation_6[0][0]               
__________________________________________________________________________________________________
activation_7 (Activation)       (None, 54, 16, 128)  0           batch_normalization_7[0][0]      
__________________________________________________________________________________________________
add_1 (Add)                     (None, 54, 16, 128)  0           dropout_2[0][0]                  
                                                                 activation_7[0][0]               
__________________________________________________________________________________________________
up_sampling2d_1 (UpSampling2D)  (None, 108, 32, 128) 0           add_1[0][0]                      
__________________________________________________________________________________________________
conv2d_4 (Conv2D)               (None, 108, 32, 128) 147584      up_sampling2d_1[0][0]            
__________________________________________________________________________________________________
skip_conv_2 (Conv2D)            (None, 108, 32, 128) 73856       max_pooling2d_1[0][0]            
__________________________________________________________________________________________________
batch_normalization_8 (BatchNor (None, 108, 32, 128) 512         conv2d_4[0][0]                   
__________________________________________________________________________________________________
batch_normalization_9 (BatchNor (None, 108, 32, 128) 512         skip_conv_2[0][0]                
__________________________________________________________________________________________________
activation_8 (Activation)       (None, 108, 32, 128) 0           batch_normalization_8[0][0]      
__________________________________________________________________________________________________
activation_9 (Activation)       (None, 108, 32, 128) 0           batch_normalization_9[0][0]      
__________________________________________________________________________________________________
add_2 (Add)                     (None, 108, 32, 128) 0           activation_8[0][0]               
                                                                 activation_9[0][0]               
__________________________________________________________________________________________________
up_sampling2d_2 (UpSampling2D)  (None, 216, 64, 128) 0           add_2[0][0]                      
__________________________________________________________________________________________________
conv2d_5 (Conv2D)               (None, 216, 64, 64)  73792       up_sampling2d_2[0][0]            
__________________________________________________________________________________________________
batch_normalization_10 (BatchNo (None, 216, 64, 64)  256         conv2d_5[0][0]                   
__________________________________________________________________________________________________
activation_10 (Activation)      (None, 216, 64, 64)  0           batch_normalization_10[0][0]     
__________________________________________________________________________________________________
dropout_3 (Dropout)             (None, 216, 64, 64)  0           activation_10[0][0]              
__________________________________________________________________________________________________
conv2d_6 (Conv2D)               (None, 216, 64, 8)   520         dropout_3[0][0]                  
__________________________________________________________________________________________________
reshape_1 (Reshape)             (None, 13824, 8)     0           conv2d_6[0][0]                   
__________________________________________________________________________________________________
activation_11 (Activation)      (None, 13824, 8)     0           reshape_1[0][0]                  
==================================================================================================
Total params: 1,112,776
Trainable params: 1,110,472
Non-trainable params: 2,304
__________________________________________________________________________________________________
Train on 2500 samples, validate on 270 samples
Epoch 1/200
Epoch 00001: val_loss improved from inf to -0.47644, saving model to exp1.hdf5
…
